2024/vishwa-ctf-2024/rev/Faulty Network/chal.pth (torch, 534328 bytes, 1 tensors)

fc.bias f4 [1024]
0.5031296 -0.84957796 -0.20341448 0.81440055 -0.22798324 -0.9858088 -0.2548742 -0.8724678
-0.19641717 0.07904604 0.26386505 0.045090184 0.46116406 0.8271287 0.731828 0.16309321
0.25114232 0.36945155 0.82014537 0.34844652 -0.8298952 0.04972699 0.17651187 0.32079205
0.08734954 0.6379074 -0.75930333 -0.43039376 -0.23833737 -0.6329639 0.21231627 0.5166643
0.209482 0.10124263 0.45323223 0.83280677 -0.861575 -0.681841 0.13727161 0.28237456
-0.734172 -0.54516304 0.017469512 -0.6347284 0.4386639 0.8309561 -0.1995906 0.68249774
0.16991895 0.7004317 0.09926489 -0.14239189 0.22855435 -0.8190516 0.15043175 0.8621399
0.9912787 -0.23426378 -0.7209284 -0.7706508 0.76612 -0.25786737 0.34458822 0.91099656
-0.31940836 -0.14368702 0.22977464 0.35199043 -0.39358476 -0.6411243 -0.9631394 0.32693928
-0.2786412 -0.48593432 0.0714035 0.95793355 0.22126372 0.6592842 -0.26194644 0.5919394
0.103621416 0.6929813 -0.9635634 -0.3383237 -0.32005018 -0.85462743 -0.756026 -0.28908926
0.14091887 0.39232117 0.3746445 0.6956793 -0.00039194195 0.79809135 -0.7472267 -0.13794719
0.79732955 0.084877566 0.6389339 0.08828399 -0.9961063 0.85070616 0.8888824 -0.79775435
-0.3758348 0.52185607 0.04454199 -0.85746914 0.4498624 0.2989776 -0.5656739 0.28573108
0.17845555 -0.16687801 -0.15309356 -0.057273153 -0.8206184 0.06105453 0.23509525 -0.83283895
0.9636349 -0.7595303 0.017718319 -0.13624486 0.35939866 0.2867308 -0.87050146 -0.51561856
-0.6652179 0.22212589 0.6430034 0.857895 -0.31748456 -0.104105756 -0.81048554 -0.08025865
-0.7404456 -0.8932081 -0.950023 -0.038134713 0.81769806 -0.65294397 0.24207078 -0.2741755
0.712512 -0.6061175 0.977622 -0.77199984 -0.14891124 0.6170969 0.72870374 0.8112392
0.49609363 0.71450317 0.6367184 0.7487725 0.42898023 -0.27899542 0.09240553 0.0025412056
-0.4892054 0.32849237 -0.7778497 0.24217667 0.6600845 -0.97113913 0.20852438 -0.93822575
0.3597098 -0.09354129 -0.42889562 0.54588825 -0.82223237 0.8595194 0.3343553 0.01680604
-0.6304232 0.9266604 -0.41221607 -0.10992386 0.62287176 0.78074986 0.46574917 0.08037156
0.016350096 0.0029654284 -0.176432 0.6394004 0.9295412 -0.71122557 -0.59318984 0.845744
0.2630701 -0.98370993 -0.90517944 -0.9174748 -0.31005272 0.4612879 0.16121927 0.7838089
0.10966693 -0.71677804 -0.011320644 -0.7482229 0.5461774 -0.011101236 0.24469914 0.7935543
-0.11787562 -0.6529313 0.84082043 -0.88676625 -0.50480473 -0.5230748 0.031865746 -0.37948132
-0.33389652 0.035978723 0.67416024 0.78778446 -0.522233 -0.072875515 0.007921322 0.89515424
0.36306006 -0.8699503 -0.4216581 -0.8550343 0.7769036 0.99116176 0.050124988 0.8759487
0.10969296 -0.515306 -0.06841859 -0.8441424 0.3863901 0.2724308 -0.7383545 -0.5016308
0.42500207 0.78538555 -0.82105595 -0.41956538 0.44182846 -0.49496067 -0.9791527 -0.36005795
0.8434525 0.88323146 -0.67883813 0.9308242 -0.9659381 -0.66022503 0.48599216 0.54469436
00000000: 1acd 003f f17d 59bf e34b 50be 8e7c 503f
00000010: 7074 69be f75d 7cbf df7e 82be 0d5a 5fbf
00000020: 9521 49be e4e2 a13d 5219 873e 7cb0 383d
00000030: b21d ec3e b5be 533f 1459 3b3f e801 273e
00000040: ba95 803e c128 bd3e 0cf5 513f 9567 b23e
00000050: 0374 54bf 87ae 4b3d 87bf 343e db3e a43e
00000060: 51e4 b23d e64d 233f b461 42bf 925c dcbe
00000070: b60e 74be ec09 22bf 7069 593e 1d44 043f
00000080: 7382 563e 4c58 cf3d 0e0e e83e d332 553f
00000090: 2e90 5cbf 228d 2ebf ee90 0c3e 6693 903e
000000a0: b2f2 3bbf ce8f 0bbf 391c 8f3c 8f7d 22bf
000000b0: 8e98 e03e 8ab9 543f 7a61 4cbe 2cb8 2e3f
000000c0: 3cff 2d3e 7e4f 333f 644b cb3d 2ecf 11be
000000d0: 270a 6a3e 5ead 51bf c80a 1a3e 33b5 5c3f
000000e0: 71c4 7d3f d8e2 6fbe c38e 38bf 5f49 45bf
000000f0: 7120 443f 3107 84be de6d b03e 1237 693f
00000100: 7e89 a3be b122 13be 0b4a 6b3e 1738 b43e
00000110: f183 c9be b920 24bf 4e90 76bf 9664 a73e
00000120: 0faa 8ebe 62cc f8be 003c 923d 223b 753f
00000130: f592 623e d9c6 283f d81d 86be 5789 173f
00000140: 7737 d43d 3967 313f 17ac 76bf c438 adbe
00000150: 9edd a3be ddc8 5abf ec8a 41bf 8203 94be
00000160: 094d 103e 52de c83e 67d1 bf3e 0a18 323f
00000170: 8f7d cdb9 b74f 4c3f 404a 3fbf 0742 0dbe
00000180: ca1d 4c3f 4ad4 ad3d 2c91 233f 3dce b43d
00000190: d300 7fbf e1c7 593f cc8d 633f a139 4cbf
000001a0: 6b6d c0be 5c98 053f a971 363d 1983 5bbf
000001b0: 5d54 e63e 9813 993e 01d0 10bf 584b 923e
000001c0: 0dbd 363e 12e2 2abe 8fc4 1cbe 4197 6abd
000001d0: 0c14 52bf 5114 7a3d cfbc 703e ef34 55bf
000001e0: c7b0 763f 9470 42bf 0226 913c c683 0bbe
000001f0: 1a03 b83e 61ce 923e 2fd9 5ebf 94ff 03bf
00000200: b84b 2abf f874 633e df9b 243f 029f 5b3f
00000210: 568d a2be 6635 d5bd fb7b 4fbf a65e a4bd
00000220: d88d 3dbf 49a9 64bf b534 73bf 2533 1cbd
00000230: a954 513f 5627 27bf 67e1 773e bb60 8cbe
00000240: 3067 363f 842a 1bbf 6f45 7a3f c8a1 45bf
00000250: 307c 18be 10fa 1d3f 548c 3a3f 5fad 4f3f
00000260: fcff fd3e aee9 363f faff 223f 8eaf 3f3f
00000270: 4ca3 db3e 7dd8 8ebe 1c3f bd3d 5b8a 263b
00000280: 2179 fabe 2730 a83e 2821 47bf 29fd 773e
00000290: 4cfb 283f 939c 78bf 6a87 553e 902f 70bf
000002a0: e22b b83e 9392 bfbd 3598 dbbe 55bf 0b3f
000002b0: d27d 52bf 7709 5c3f 9e30 ab3e d2ac 893c
000002c0: 6a63 21bf 9e39 6d3f fc0d d3be c31f e1bd
000002d0: 8674 1f3f 39df 473f ad76 ee3e d899 a43d
000002e0: a3f0 853c a257 423b 97aa 34be bfaf 233f
000002f0: 69f6 6d3f e112 36bf 4adb 17bf ae82 583f
00000300: 20b1 863e 6ad4 7bbf d7b9 67bf a1df 6abf
00000310: 3bbf 9ebe ed2d ec3e aa16 253e b3a7 483f
00000320: 0e99 e03d c47e 37bf 397a 39bc 898b 3fbf
00000330: 48d2 0b3f f5e1 35bc 6992 7a3e 6026 4b3f
00000340: c668 f1bd 8126 27bf 0240 573f 1d03 63bf
00000350: e23a 01bf 3be8 05bf a885 023d 604b c2be
00000360: 7cf4 aabe 6d5e 133d c495 2c3f 3eac 493f
00000370: 10b1 05bf c23f 95bd 6fc8 013c d428 653f
00000380: 02e3 b93e 10b5 5ebf 92e3 d7be 87e3 5abf
00000390: 28e3 463f c7bc 7d3f dc4f 4d3d 2d3e 603f
000003a0: b4a6 e03d 18eb 03bf 0c1f 8cbd b719 58bf
000003b0: ecd4 c53e 0d7c 8b3e cd04 3dbf e06a 00bf
000003c0: df99 d93e 070f 493f b930 52bf 46d1 d6be
000003d0: 5737 e23e 7c6b fdbe c0a9 7abf 8459 b8be
000003e0: 81ec 573f 751b 623f 56c8 2dbf 7f4a 6e3f
000003f0: b847 77bf 8204 29bf f7d3 f83e 1771 0b3f
